mnist/model.pth (torch, 35927 bytes, 6 tensors)

conv1.weight f4 [10, 1, 5, 5]
0.033255372 0.0052127913 0.3077516 0.31652394 0.21992612 0.13225982 0.40804854 0.47313094
0.45377776 0.37218803 0.28455648 0.17905225 -0.032552604 0.037237644 0.04443073 -0.054107334
-0.23833655 -0.32420513 -0.37441227 -0.14942925 -0.35484314 -0.29347894 -0.11328591 0.0020608588
-0.00012407538 0.22939998 0.01384847 0.41279912 0.37342605 0.24724562 0.018292272 -0.02787949
0.13216224 0.35046524 0.39894542 -0.22602873 -0.33273438 -0.20824757 -0.24722824 0.062176127
-0.20884879 -0.04967427 -0.30199295 -0.13705096 -0.024548737 0.022266552 -0.04779307 -0.19466537
-0.024944488 0.04499337 0.05311572 0.00011207679 0.16455424 0.029787743 0.123759605 -0.0497689
0.057264403 -0.083302826 -0.0187717 0.17371298 -0.009606123 -0.11859941 -0.08537612 0.3932477
0.11066512 -0.2573165 -0.07900689 0.25488842 0.37750968 -0.15956886 -0.089826316 -0.08296639
0.34908935 0.17068455 -0.28449348 -0.15397878 -0.08887716 -0.16589776 -0.10402096 0.18913619
-0.045564815 -0.18881273 -0.1833227 0.08056284 0.17807263 -0.16286646 0.030877221 -0.12794037
0.026057897 0.24959902 -0.23048899 -0.14398381 -0.0938196 0.22016108 0.14235388 -0.044755083
-0.18906273 -0.03167499 0.049640372 0.11203635 0.1501693 0.0074513624 -0.012671243 0.32447508
0.20762643 -0.040423036 0.10880432 0.13976406 0.23873875 0.25996658 -0.18538968 0.029389683
0.062221095 0.22385979 0.3087073 -0.07024551 -0.056855023 -0.06481886 0.038909055 0.3182615
-0.14082189 -0.001790069 -0.17468306 0.11120114 0.21882173 0.11970123 0.13017029 -0.15560323
-0.3109483 -0.2982762 0.16543172 0.41203663 0.3565912 -0.0017916422 -0.36644873 -0.14992999
0.18223909 0.3611077 0.35215583 -0.14845273 -0.23488282 0.15044767 0.24772868 0.08560154
0.19121924 -0.041568574 -0.2263278 -0.10070008 0.1797816 0.15868519 0.18831642 0.2591439
0.22634922 0.19012548 0.19444302 -0.11618352 0.099303454 -0.13488197 -0.15098174 -0.11300262
0.17113316 -0.07706041 -0.032690454 0.07119862 -0.066600785 -0.08959459 -0.103607684 -0.23452972
0.0913351 0.06151933 0.1154157 -0.14005114 0.11038947 0.22581153 -0.083743274 -0.07877695
-0.09390285 -0.29299074 -0.23488197 -0.054456666 0.11545791 -0.20746939 -0.2594563 -0.0039485516
0.01793836 0.0009375874 -0.03522923 -0.23347998 0.18305783 0.32137454 -0.18993787 -0.040996704
-0.047934886 0.057990626 0.25066745 0.24590665 0.30242535 0.33400813 0.36685538 0.0005305688
-0.06618804 -0.23248114 -0.13568291 0.038686886 0.08022133 0.23391877 -0.16595477 -0.073673554
-0.15168625 -0.16361706 0.2768147 0.060018875 -0.19078055 -0.21916167 0.043041587 0.18934801
0.24442814 0.039843377 -0.12779327 -0.10211505 -0.09028158 0.2528022 0.08159757 0.029529188
-0.10981001 0.08679536 0.19050248 0.010169123 -0.057180833 0.22979346 -0.23890135 0.01902333
0.34036666 0.24838312 0.22465998 -0.19332668 0.113194555 0.46949017 0.30267122 0.029800786
0.10433273 0.22452372 0.38904563 0.00365388 0.026871154 0.24248308 0.286054 0.089673966
-0.17755902 -0.20661281
00000000: c936 083d 10d0 aa3b 9e91 9d3e 6d0f a23e
00000010: 5034 613e 1e6f 073e bdeb d03e 383e f23e
00000020: 8f55 e83e 6e8f be3e 63b1 913e 7959 373e
00000030: e155 05bd 8086 183d fffc 353d a79f 5dbd
00000040: 7f0e 74be 37fe a5be f7b2 bfbe fb03 19be
00000050: 00ae b5be df42 96be 7102 e8bd 790f 073b
00000060: 3b1a 02b9 d4e7 6a3e b1e4 623c 685a d33e
00000070: b331 bf3e f52d 7d3e add9 953c 8763 e4bc
00000080: 8a55 073e 2e70 b33e 9342 cc3e 1374 67be
00000090: 295c aabe da3e 55be 6629 7dbe 65ac 7e3d
000000a0: 75dc 55be 3f77 4bbd d29e 9abe 1657 0cbe
000000b0: 6f1a c9bc 5868 b63c abc2 43bd 5c56 47be
000000c0: 6258 ccbc f84a 383d df8f 593d c50a eb38
000000d0: e880 283e 6d05 f43c ad75 fd3d 79da 4bbd
000000e0: 148e 6a3d ac9a aabd 1cc7 99bc d1e1 313e
000000f0: 0063 1dbc 3fe4 f2bd add9 aebd c357 c93e
00000100: 65a4 e23d fdbe 83be 5dce a1bd bc80 823e
00000110: f348 c13e 0566 23be dcf6 b7bd 48ea a9bd
00000120: d7bb b23e eec7 2e3e 21a9 91be 9dac 1dbe
00000130: 3a05 b6bd 1ae1 29be f108 d5bd ebac 413e
00000140: 2ca2 3abd 2058 41be f2b8 3bbe 21fe a43d
00000150: ac58 363e 77c6 26be 3af2 fc3c cd02 03be
00000160: 5f77 d53c e396 7f3e 4e05 6cbe 7e70 13be
00000170: 7e24 c0bd e871 613e 37c5 113e 1b51 37bd
00000180: a999 41be a2bd 01bd b453 4b3d 5073 e53d
00000190: fbc5 193e 8f2a f43b 0c9b 4fbc 9921 a63e
000001a0: 069c 543e a092 25bd cdd4 de3d 4f1e 0f3e
000001b0: ee77 743e 571a 853e cbd6 3dbe a2c2 f03c
000001c0: 8cdb 7e3d 803b 653e e20e 9e3e e1dc 8fbd
000001d0: d0e0 68bd c0bf 84bd 1a5f 1f3d 2cf3 a23e
000001e0: 9d33 10be c0a0 eaba 1ee0 32be 6cbd e33d
000001f0: ce12 603e eb25 f53d 5c4b 053e 7456 1fbe
00000200: 9e34 9fbe a8b7 98be ef66 293e 77f6 d23e
00000210: 1f93 b63e 89d5 eaba 2b9f bbbe 3f87 19be
00000220: e29c 3a3e 1ce3 b83e c54d b43e fe03 18be
00000230: 1f85 70be f40e 1a3e 96ac 7d3e dc4f af3d
00000240: face 433e cf43 2abd 7ac2 67be d83b cebd
00000250: ab18 383e 5f7e 223e 05d6 403e 82ae 843e
00000260: 17c8 673e 41b0 423e 121c 473e a0f1 edbd
00000270: 9c5f cb3d 801e 0abe f59a 1abe eb6d e7bd
00000280: 883d 2f3e d9d1 9dbd 6de6 05bd 95d0 913d
00000290: fe65 88bd 5e7d b7bd 4430 d4bd 8f28 70be
000002a0: e60d bb3d b1fb 7b3d 115f ec3d 9169 0fbe
000002b0: e013 e23d 233b 673e 9881 abbd cf55 a1bd
000002c0: 2350 c0bd e202 96be e684 70be f40d 5fbd
000002d0: 3275 ec3d db72 54be 75d7 84be da62 81bb
000002e0: 78f3 923c 6dc8 753a 864c 10bd 6015 6fbe
000002f0: 8373 3b3e 348b a43e 137f 42be 29ec 27bd
00000300: 5f57 44bd 9487 6d3d 7c57 803e f4ce 7b3e
00000310: 7fd7 9a3e 1d03 ab3e 78d4 bb3e df15 0b3a
00000320: 988d 87bd 890f 6ebe 76f0 0abe 2476 1e3d
00000330: 154b a43d 6788 6f3e 0cf0 29be 29e2 96bd
00000340: a453 1bbe 3b8b 27be a8ba 8d3e 5ad6 753d
00000350: fa5b 43be eb6b 60be 604c 303d 72e4 413e
00000360: 5f4b 7a3e cf32 233d 3ddc 02be b221 d1bd
00000370: 8de5 b8bd 4a6f 813e a01c a73d 32e7 f13c
00000380: 12e4 e0bd c4c1 b13d 1513 433e 659c 263c
00000390: 7336 6abd fa4e 6b3e 8ea2 74be d1d6 9b3c
000003a0: 8a44 ae3e 2558 7e3e 440d 663e 6ef7 45be
000003b0: 8cd2 e73d 0461 f03e b9f7 9a3e c720 f43c
000003c0: 66ac d53d 8ce9 653e fd30 c73e ef75 6f3b
000003d0: e520 dc3c 7c4d 783e ab75 923e fca6 b73d
000003e0: 08d2 35be 4f92 53be

conv1.bias f4 [10]
0.40464482 0.032040812 0.10138962 0.12187652 0.09927756 -0.04270903 -0.13750456 -0.04816992
0.1940528 -0.03299155
00000000: 9b2d cf3e 3a3d 033d 5ca5 cf3d 669a f93d
00000010: 0952 cb3d aaef 2ebd ffcd 0cbe d24d 45bd
00000020: c7b5 463e 2622 07bd

conv2.weight f4 [20, 10, 5, 5]
-0.0459717 -0.008830762 -0.049207117 -0.033195026 0.020684592 -0.093559995 -0.046247024 0.0066301012
-0.049908414 -0.08212118 0.014675743 0.019402154 -0.0048600705 0.036250636 -0.05797492 0.04132443
0.018426232 0.09494476 0.10959468 0.06258253 -0.034572914 0.035156343 0.059096906 0.09451594
-0.031952005 -0.025600161 -0.02214745 0.008756069 -0.022187114 0.0287146 0.0213634 -0.11874752
-0.08050548 -0.014004498 0.038885154 -0.09820281 -0.007202098 -0.008328277 -0.022904526 -0.043586373
-0.017167332 -0.06087003 0.05458772 0.00048914424 0.037887197 -0.04797986 -0.019865535 -0.0010532591
0.07674458 0.04952608 0.098877415 0.160392 -0.01991803 -0.019511947 -0.03282812 0.04307524
0.08237104 -0.07215425 -0.07663922 0.0062900484 0.03996944 0.036615264 0.003005768 0.04180819
-0.051644582 0.057822824 -0.04726632 -0.007444034 -0.06903801 0.025080917 -0.031571735 0.0036164287
0.011589764 0.01840016 0.0035902776 0.10914226 0.013602868 0.030813858 -0.036932237 -0.006372144
0.027138928 0.047112267 -0.018130425 0.047422603 -0.0064420057 0.07442072 0.0150120035 0.034431852
-0.040807348 0.044557676 0.054363675 0.018410236 -0.050432283 -0.07348323 -0.08333237 0.055100195
0.0392681 0.031806026 -0.033768997 0.040527444 0.06126706 -0.016586257 0.0011356547 -0.06850167
0.023787651 0.08215542 0.022891099 -0.026410004 -0.082923725 0.028852884 0.053036276 -0.029187895
-0.12155999 -0.061126884 -0.081427984 -0.021068905 -0.069714345 -0.04130885 0.04891484 0.005449238
-0.00524036 -0.037870105 -0.040369906 -0.020408245 -0.048609704 -0.11657005 -0.024893079 -0.031801376
0.009749059 -0.064486206 -0.097994514 0.03779192 0.046789195 -0.08709217 -0.0012579459 0.0017867049
0.06030911 0.002198898 -0.010581903 -0.024406344 0.011366643 -0.024013998 0.056363344 0.0477916
0.026874848 -0.009469574 0.017301314 0.039047133 -0.020613847 -0.084397085 -0.065282084 -0.043454606
0.013892559 -0.027600726 0.0007171515 0.028280653 0.008120754 -0.032003462 -0.00605138 -0.05858982
-0.057381485 0.009574809 0.02608492 0.028068697 -0.0031894257 -0.038043953 6.309479e-05 -0.0005519601
0.039387096 0.073010296 -0.029081048 0.019338217 -0.032396935 0.04281299 0.046246454 0.009783618
-0.029070197 -0.07959777 -0.06345783 0.040415008 -0.00689304 0.016922625 -0.029405447 0.06420409
-0.015695807 0.042958863 -0.05801378 0.0889574 0.06160898 -0.021543449 -0.043086067 -0.0690702
-0.023725279 0.06007629 -0.052275177 -0.05009439 -0.058923654 0.019015267 -0.07557248 -0.03821498
-0.06686495 0.017767519 -0.017469846 -0.008324277 0.061535276 -0.0844539 -0.0024016802 -0.03367447
0.015208734 0.019479092 0.018773818 -0.0028298034 0.02087834 -0.00030681744 0.029844562 0.04651589
0.041388534 0.014043932 -0.064217135 0.0051716655 0.015163768 -0.025949016 -0.0014891527 0.032355554
-0.05157461 -0.0041266363 0.16307661 0.01944154 0.0071674543 -0.0024128114 0.044504363 0.15435092
-0.03601332 -0.08497546 -0.0981514 0.04772053 0.010268684 0.005017957 -0.04529207 -0.054816864
0.029275317 0.051999163 0.018470766 -0.033900544 -0.014217691 0.02567952 0.0337737 0.0455853
-0.049706418 -0.051877514 0.04043913 -0.052008454 -0.07720742 0.04790903 0.120152265 -0.074325085
00000000: d24c 3cbd e6ae 10bc 678d 49bd 82f7 07bd
00000010: bc72 a93c 629c bfbd 856d 3dbd 5241 d93b
00000020: c46c 4cbd 262f a8bd 8772 703c 44f1 9e3c
00000030: 3a41 9fbb 8c7b 143d 1c77 6dbd ce43 293d
00000040: 9cf2 963c 6672 c23d 2d73 e03d 452b 803d
00000050: 549c 0dbd 1900 103d 990f 723d 9391 c13d
00000060: 1be0 02bd 6eb7 d1bc 926e b5bc 9d75 0f3c
00000070: c0c1 b5bc e13a eb3c 4c02 af3c e631 f3bd
00000080: 0fe0 a4bd 1f73 65bc 0a46 1f3d 8e1e c9bd
00000090: 94ff ebbb 5373 08bc 46a2 bbbc a087 32bd
000000a0: 81a2 8cbc da52 79bd 6097 5f3d ea39 003a
000000b0: 9b2f 1b3d 8886 44bd 0cbd a2bc 830d 8aba
000000c0: 432c 9d3d dcdb 4a3d 3e80 ca3d cd3d 243e
000000d0: 232b a3bc 85d7 9fbc c776 06bd aa6f 303d
000000e0: 26b2 a83d 9cc5 93bd 06f5 9cbd c01c ce3b
000000f0: ffb6 233d e3f9 153d 6bfc 443b 113f 2b3d
00000100: 4589 53bd a0d7 6c3d 549a 41bd 15ed f3bb
00000110: cd63 8dbd 7f76 cd3c 5d51 01bd 9b01 6d3b
00000120: fee2 3d3c efbb 963c dd4a 6b3b fa85 df3d
00000130: 90de 5e3c 586d fc3c 4246 17bd 6bcd d0bb
00000140: 7552 de3c cbf8 403d 4286 94bc 343e 423d
00000150: 7617 d3bb e469 983d e8f4 753c 6a08 0d3d
00000160: 9b25 27bd 1c82 363d 72ac 5e3d 10d1 963c
00000170: 1592 4ebd 607e 96bd 29aa aabd beb0 613d
00000180: 96d7 203d 0947 023d 5c51 0abd 1b00 263d
00000190: 2bf3 7a3d e7df 87bc 40da 943a 9b4a 8cbd
000001a0: 52de c23c 1a41 a83d 1d86 bb3c cb59 d8bc
000001b0: ead3 a9bd e25c ec3c 913c 593d 741b efbc
000001c0: 72f4 f8bd 2f60 7abd b7c3 a6bd b298 acbc
000001d0: 65c6 8ebd 7833 29bd ed5a 483d 858f b23b
000001e0: 53b7 abbb af1d 1bbd ea5a 25bd 312f a7bc
000001f0: f81a 47bd 47bc eebd 92ec cbbc 2942 02bd
00000200: 84ba 1f3c 5811 84bd 59b1 c8bd b3cb 1a3d
00000210: 07a6 3f3d 615d b2bd a9e1 a4ba de2f ea3a
00000220: af06 773d 631b 103b b85f 2dbc d0ef c7bc
00000230: 283b 3a3c 01b9 c4bc 40dd 663d 20c1 433d
00000240: a428 dc3c 4626 1bbc 7cbb 8d3c e3ef 1f3d
00000250: 5fde a8bc 61d8 acbd 9db2 85bd 75fd 31bd
00000260: 9e9d 633c eb1a e2bc 39ff 3b3a d4ac e73c
00000270: e90c 053c 1016 03bd a84a c6bb e1fb 6fbd
00000280: d908 6bbd a9df 1c3c 0bb0 d53c 53f0 e53c
00000290: af05 51bb fad3 1bbd c251 8438 6ab1 10ba
000002a0: 5d54 213d 6c86 953d 613b eebc 2e6b 9e3c
000002b0: a6b2 04bd ac5c 2f3d ec6c 3d3d 784b 203c
000002c0: 9f24 eebc 2804 a3bd 2ef6 81bd 358a 253d
000002d0: 03df e1bb 51a1 8a3c b1e3 f0bc 6f7d 833d
000002e0: 7e94 80bc a2f5 2f3d db9f 6dbd 4c2f b63d
000002f0: b359 7c3d e37b b0bc 047b 30bd ad74 8dbd
00000300: 845b c2bc 8e12 763d 7f1e 56bd c62f 4dbd
00000310: ee59 71bd e8c5 9b3c bfc5 9abd 5087 1cbd
00000320: 7ef0 88bd 308d 913c ec1c 8fbc 8c62 08bc
00000330: 6a0c 7c3d 2bf6 acbd 8265 1dbb 3eee 09bd
00000340: 0e2e 793c 9e92 9f3c 8dcb 993c 3974 39bb
00000350: 0d09 ab3c 57dc a0b9 957c f43c 7287 3e3d
00000360: 0687 293d 8518 663c 4684 83bd 1377 a93b
00000370: 7471 783c 0893 d4bc ac2f c3ba 4287 043d
00000380: e63f 53bd bc38 87bb 8efd 263e dd43 9f3c
00000390: f7dc ea3b 4220 1ebb 354a 363d 2b0e 1e3e
000003a0: b482 13bd 9d07 aebd 9a03 c9bd 9a76 433d
000003b0: fb3d 283c ad6d a43b 2d84 39bd a687 60bd
000003c0: cad2 ef3c 13fd 543d 0150 973c 4cdb 0abd
000003d0: 51f1 68bc db5d d23c 4b56 0a3d a7b7 3a3d
000003e0: f598 4bbd 847d 54bd 80a3 253d d106 55bd
000003f0: ec1e 9ebd 423c 443d 6412 f63d c037 98bd

conv2.bias f4 [20]
-0.047397975 -0.041798994 -0.0629629 0.01889399 0.007254628 -0.005592993 -0.034384973 0.042057123
-0.029603686 -0.00523623 0.04249293 -0.05832783 -0.017438108 -0.060919393 0.07707152 0.027357409
-0.05574168 -0.04978265 0.016577529 0.06314087
00000000: 6124 42bd 6c35 2bbd b1f2 80bd 92c7 9a3c
00000010: 3bb8 ed3b 6d45 b7bb 42d7 0cbd 1744 2c3d
00000020: 6e83 f2bc ae94 abbb 110d 2e3d 2ae9 6ebd
00000030: 5dda 8ebc 9d86 79bd acd7 9d3d a51c e03c
00000040: 6351 64bd e4e8 4bbd 99cd 873c 0050 813d

fc.weight f4 [10, 320]
0.046285205 -0.04114782 -0.02721006 -0.036478866 -0.027123006 0.026968587 0.031662587 0.007886921
0.08225778 0.051374815 -0.004365265 -0.0034123964 0.0027425094 0.08316462 -0.064522065 -0.059450433
-0.015094179 -0.06091715 0.023113515 -0.0126045635 -0.020432098 -0.090804145 -0.06395954 0.06736258
-0.043630496 0.021321502 -0.013617895 0.025158662 0.05889076 0.14257282 0.071111776 -0.008181874
-0.054876797 -0.008672713 0.070987836 0.012007376 -0.03612817 0.060559873 0.0035093995 0.05645382
-0.016174152 -0.105451874 -0.013790424 -0.023608236 -0.027372224 -0.037963178 -0.04783655 0.01656522
-0.008902904 0.023945456 -0.0009220347 -0.0017220932 -0.081333905 -0.03370174 0.05486689 0.06497473
-0.22173153 -0.10195093 -0.0025793724 0.09389061 -0.103403434 -0.11639741 -0.0440638 0.010313838
-0.021472225 -0.08494254 -0.04270713 0.033747535 -0.07812789 -0.060007792 -0.0017370112 0.016459668
-0.10145038 -0.16093574 -0.121056974 0.036455918 -0.04737951 -0.031614214 0.029010551 0.06135611
0.014111975 -0.006714532 0.038327944 -0.02574306 -0.08143806 0.033517506 -0.030879077 -0.110440336
-0.034888934 0.014384948 -0.09190056 -0.024159936 0.062519655 0.023069693 0.025904616 0.041227248
0.0033099123 -0.023739818 -0.1051486 -0.03521626 0.011666318 -0.011392139 0.06812498 0.16023517
0.011635115 -0.16481762 0.10013306 0.1455211 0.04573138 -0.13385907 -0.009458924 0.09016212
-0.0029949963 0.06290767 0.0638846 0.09797254 -0.010935955 0.012509411 0.0070396573 0.050599765
-0.017821388 -0.028301647 -0.09922966 -0.22944468 0.06447347 0.021810988 0.07008747 -0.16573153
-0.04557256 0.008719272 0.0250384 -0.05623362 0.0020109913 -0.0071154507 0.025146207 -0.033968683
0.056393813 0.06694703 -0.083367735 -0.05401301 0.0012548446 -0.0212376 -0.06010277 0.02841534
-0.04321378 -0.053101312 -0.07187019 -0.017684683 -0.00027913082 0.008748054 -0.021610329 0.0074960957
0.041044883 0.025520312 -0.023873571 0.020489624 0.02648359 -0.011161447 0.06968249 0.08877203
0.0007935213 0.0041631013 -0.048708253 -0.027679736 -0.030027553 0.037687723 0.024983665 0.011881349
-0.012158381 0.010999903 0.02810345 -0.081913665 0.08165785 0.0788176 0.016586438 0.03724453
-0.07053758 -0.023563514 0.012327442 0.038221184 -0.075814165 -0.041514974 0.021518249 0.07276061
-0.03804223 -0.02468771 0.0077799647 0.08417396 0.03683081 -0.016077397 -0.030618722 0.119553044
-0.01818979 -0.034159794 -0.030486502 -0.083390445 -0.014496144 0.024006024 0.022533482 -0.123238765
0.01191389 0.03585547 0.038731046 0.0020464258 -0.015636599 0.05493788 0.1293891 0.048086114
0.0029844574 0.00018415242 0.071244486 0.008472507 -0.005404366 0.06543316 0.041403826 0.105531126
0.01999249 -0.04539743 0.05833804 -0.039030477 0.09021823 0.06251297 -0.038104948 0.008387953
-0.042460293 0.056350075 0.08158634 0.053350415 0.035736915 -0.030839056 -0.014074778 -0.035966825
0.04936014 -0.056564707 -0.017060824 0.013590389 -0.098522305 -0.06970316 0.03796917 0.079775125
0.073498756 -0.0474416 0.08872514 -0.01603058 0.04190453 0.01588894 -0.016663464 -0.024878874
0.06839288 -0.009731762 -0.06268657 -0.024555031 0.038373146 -0.045117654 -0.06633524 0.0007662394
00000000: 8e95 3d3d 9e8a 28bd a2e7 debc dd6a 15bd
00000010: 1131 debc 3aed dc3c a1b0 013d 2538 013c
00000020: c476 a83d 666e 523d 7f0a 8fbb 83a2 5fbb
00000030: acbb 333b 3652 aa3d 2524 84bd 4c82 73bd
00000040: 934d 77bc 4384 79bd 8e58 bd3c 5f83 4ebc
00000050: 3761 a7bc 86f7 b9bd 38fd 82bd 64f5 893d
00000060: e4b5 32bd 6eaa ae3c 971d 5fbc 8a19 ce3c
00000070: 7037 713d 9cfe 113e 0da3 913d 440d 06bc
00000080: 7ec6 60bd ff17 0ebc 1262 913d 96ba 443c
00000090: 22fb 13bd a10d 783d f4fd 653b 1f3c 673d
000000a0: a87f 84bc 27f7 d7bd 3bf1 61bc 0f66 c1bc
000000b0: b73b e0bc 477f 1bbd 42f0 43bd c9b3 873c
000000c0: 7cdd 11bc 4329 c43c b4b4 71ba dcb7 e1ba
000000d0: 6492 a6bd d60a 0abd 1bbc 603d 7911 853d
000000e0: 970d 63be a6cb d0bd b00a 29bb b849 c03d
000000f0: 2ec5 d3bd c461 eebd 3e7c 34bd 5ffb 283c
00000100: 85e6 afbc 5bf6 adbd aced 2ebd db3a 0a3d
00000110: 8401 a0bd bbca 75bd 6dac e3ba 6dd6 863c
00000120: 38c5 cfbd 57cc 24be b8ec f7bd cd52 153d
00000130: 0411 42bd e87d 01bd 89a7 ed3c 8b50 7b3d
00000140: ea35 673c 9405 dcbb c3fd 1c3d 1ce3 d2bc
00000150: ffc8 a6bd a749 093d 1ef6 fcbc 8b2e e2bd
00000160: b3e7 0ebd d8ae 6b3c 5c36 bcbd 0feb c5bc
00000170: 4e0a 803d a7fc bc3c eb35 d43c e7dd 283d
00000180: 1deb 583b 027a c2bc 2658 d7bd ed3e 10bd
00000190: 1624 3f3c 18a6 3abc 1c85 8b3d b014 243e
000001a0: 36a1 3e3c f3c5 28be 9012 cd3d 7c03 153e
000001b0: d450 3b3d 5a12 09be 9af9 1abc eba6 b83d
000001c0: b347 44bb bdd5 803d eed5 823d d4a5 c83d
000001d0: b82c 33bc 46f4 4c3c edac e63b b341 4f3d
000001e0: 29fe 91bc dbd8 e7bc ec38 cbbd 8cf3 6abe
000001f0: ab0a 843d f5ac b23c 058a 8f3d 87b5 29be
00000200: 4baa 3abd 47db 0e3c 551d cd3c 3955 66bd
00000210: d6ca 033b ba28 e9bb 6bff cd3c bf22 0bbd
00000220: 33fd 663d 861b 893d b4bc aabd bf3c 5dbd
00000230: 9979 a43a 7afa adbc 522e 76bd 4ac7 e83c
00000240: ef00 31bd c380 59bd ae30 93bd 78df 90bc
00000250: 4e58 92b9 ff53 0f3c 2508 b1bc cfa1 f53b
00000260: ae1e 283d f90f d13c 8292 c3bc dbd9 a73c
00000270: 1df4 d83c 80de 36bc b1b5 8e3d 1cce b53d
00000280: 5004 503a a06a 883b 4e82 47bd 9dc0 e2bc
00000290: 58fc f5bc 715e 1a3d 8baa cc3c fda9 423c
000002a0: f233 47bc f038 343c 3539 e63c 5ac2 a7bd
000002b0: 3b3c a73d 1f6b a13d 48e0 873c b88d 183d
000002c0: 0276 90bd 4508 c1bc 0af9 493c d18d 1c3d
000002d0: 7544 9bbd 9b0b 2abd 0a47 b03c 8403 953d
000002e0: 2bd2 1bbd e13d cabc 13ef fe3b 6663 ac3d
000002f0: e7db 163d bfb4 83bc 1dd4 fabc 3ad8 f43d
00000300: c102 95bc 24eb 0bbd d4be f9bc 9cc8 aabd
00000310: 3c81 6dbc 48a8 c43c 2398 b83c 9b64 fcbd
00000320: 7a32 433c 2fdd 123d 72a4 1e3d 541d 063b
00000330: 5318 80bc 8b06 613d 947e 043e f2f5 443d
00000340: e396 433b 0a19 4139 a1e8 913d 45d0 0a3c
00000350: 1c17 b1bb d201 863d 0f97 293d b420 d83d
00000360: 4ac7 a33c a8f2 39bd def3 6e3d 6cde 1fbd
00000370: 56c4 b83d cd06 803d ef13 1cbd a06d 093c
00000380: d8ea 2dbd 56cf 663d bd16 a73d f785 5a3d
00000390: df60 123d 30a2 fcbc e699 66bc f351 13bd
000003a0: dc2d 4a3d 65b0 67bd 24c3 8bbc 39aa 5e3c
000003b0: 10c6 c9bd 88c0 8ebd 8f85 1b3d 2461 a33d
000003c0: 8486 963d 2052 42bd 87b5 b53d 9052 83bc
000003d0: 16a4 2b3d 8629 823c d181 88bc c8ce cbbc
000003e0: 9111 8c3d f871 1fbc d161 80bd a227 c9bc
000003f0: 292d 1d3d 4acd 38bd c5da 87bd 75dd 483a

fc.bias f4 [10]
-0.04576666 0.08719988 -0.008303845 0.002552628 -0.010816934 -0.020461012 0.019651355 -0.049442183
0.017098075 0.049464725
00000000: d275 3bbd da95 b23d da0c 08bc fe49 273b
00000010: 8239 31bc da9d a7bc e1fb a03c e383 4abd
00000020: 4311 8c3c 869b 4a3d
